node {
  name: "x"
  op: "Placeholder"
  attr {
    key: "dtype"
    value {
      type: DT_FLOAT
    }
  }
  attr {
    key: "shape"
    value {
      shape {
        dim {
          size: -1
        }
        dim {
          size: 16
        }
      }
    }
  }
}
node {
  name: "decoder/dense_5/MatMul/ReadVariableOp/resource"
  op: "Const"
  attr {
    key: "dtype"
    value {
      type: DT_FLOAT
    }
  }
  attr {
    key: "value"
    value {
      tensor {
        dtype: DT_FLOAT
        tensor_shape {
          dim {
            size: 16
          }
          dim {
            size: 64
          }
        }
        tensor_content: "…"
      }
    }
  }
}
node {
  name: "decoder/dense_5/MatMul/ReadVariableOp"
  op: "Identity"
  input: "decoder/dense_5/MatMul/ReadVariableOp/resource"
  attr {
    key: "T"
    value {
      type: DT_FLOAT
    }
  }
}
node {
  name: "decoder/dense_5/MatMul"
  op: "MatMul"
  input: "x"
  input: "decoder/dense_5/MatMul/ReadVariableOp"
  attr {
    key: "T"
    value {
      type: DT_FLOAT
    }
  }
  attr {
    key: "transpose_a"
    value {
      b: false
    }
  }
  attr {
    key: "transpose_b"
    value {
      b: false
    }
  }
}
node {
  name: "decoder/dense_5/BiasAdd/ReadVariableOp/resource"
  op: "Const"
  attr {
    key: "dtype"
    value {
      type: DT_FLOAT
    }
  }
  attr {
    key: "value"
    value {
      tensor {
        dtype: DT_FLOAT
        tensor_shape {
          dim {
            size: 64
          }
        }
        tensor_content: "…"
      }
    }
  }
}
node {
  name: "decoder/dense_5/BiasAdd/ReadVariableOp"
  op: "Identity"
  input: "decoder/dense_5/BiasAdd/ReadVariableOp/resource"
  attr {
    key: "T"
    value {
      type: DT_FLOAT
    }
  }
}
node {
  name: "decoder/dense_5/BiasAdd"
  op: "BiasAdd"
  input: "decoder/dense_5/MatMul"
  input: "decoder/dense_5/BiasAdd/ReadVariableOp"
  attr {
    key: "T"
    value {
      type: DT_FLOAT
    }
  }
  attr {
    key: "data_format"
    value {
      s: "NHWC"
    }
  }
}
node {
  name: "decoder/dense_5/Relu"
  op: "Relu"
  input: "decoder/dense_5/BiasAdd"
  attr {
    key: "T"
    value {
      type: DT_FLOAT
    }
  }
}
node {
  name: "decoder/dense_6/MatMul/ReadVariableOp/resource"
  op: "Const"
  attr {
    key: "dtype"
    value {
      type: DT_FLOAT
    }
  }
  attr {
    key: "value"
    value {
      tensor {
        dtype: DT_FLOAT
        tensor_shape {
          dim {
            size: 64
          }
          dim {
            size: 512
          }
        }
        tensor_content: "…"
      }
    }
  }
}
node {
  name: "decoder/dense_6/MatMul/ReadVariableOp"
  op: "Identity"
  input: "decoder/dense_6/MatMul/ReadVariableOp/resource"
  attr {
    key: "T"
    value {
      type: DT_FLOAT
    }
  }
}
node {
  name: "decoder/dense_6/MatMul"
  op: "MatMul"
  input: "decoder/dense_5/Relu"
  input: "decoder/dense_6/MatMul/ReadVariableOp"
  attr {
    key: "T"
    value {
      type: DT_FLOAT
    }
  }
  attr {
    key: "transpose_a"
    value {
      b: false
    }
  }
  attr {
    key: "transpose_b"
    value {
      b: false
    }
  }
}
node {
  name: "decoder/dense_6/BiasAdd/ReadVariableOp/resource"
  op: "Const"
  attr {
    key: "dtype"
    value {
      type: DT_FLOAT
    }
  }
  attr {
    key: "value"
    value {
      tensor {
        dtype: DT_FLOAT
        tensor_shape {
          dim {
            size: 512
          }
        }
        tensor_content: "…"
      }
    }
  }
}
node {
  name: "decoder/dense_6/BiasAdd/ReadVariableOp"
  op: "Identity"
  input: "decoder/dense_6/BiasAdd/ReadVariableOp/resource"
  attr {
    key: "T"
    value {
      type: DT_FLOAT
    }
  }
}
node {
  name: "decoder/dense_6/BiasAdd"
  op: "BiasAdd"
  input: "decoder/dense_6/MatMul"
  input: "decoder/dense_6/BiasAdd/ReadVariableOp"
  attr {
    key: "T"
    value {
      type: DT_FLOAT
    }
  }
  attr {
    key: "data_format"
    value {
      s: "NHWC"
    }
  }
}
node {
  name: "decoder/dense_6/Relu"
  op: "Relu"
  input: "decoder/dense_6/BiasAdd"
  attr {
    key: "T"
    value {
      type: DT_FLOAT
    }
  }
}
node {
  name: "decoder/reshape_2/Shape"
  op: "Shape"
  input: "decoder/dense_6/Relu"
  attr {
    key: "T"
    value {
      type: DT_FLOAT
    }
  }
  attr {
    key: "out_type"
    value {
      type: DT_INT32
    }
  }
}
node {
  name: "decoder/reshape_2/strided_slice/stack"
  op: "Const"
  attr {
    key: "dtype"
    value {
      type: DT_INT32
    }
  }
  attr {
    key: "value"
    value {
      tensor {
        dtype: DT_INT32
        tensor_shape {
          dim {
            size: 1
          }
        }
        int_val: 0
      }
    }
  }
}
node {
  name: "decoder/reshape_2/strided_slice/stack_1"
  op: "Const"
  attr {
    key: "dtype"
    value {
      type: DT_INT32
    }
  }
  attr {
    key: "value"
    value {
      tensor {
        dtype: DT_INT32
        tensor_shape {
          dim {
            size: 1
          }
        }
        int_val: 1
      }
    }
  }
}
node {
  name: "decoder/reshape_2/strided_slice/stack_2"
  op: "Const"
  attr {
    key: "dtype"
    value {
      type: DT_INT32
    }
  }
  attr {
    key: "value"
    value {
      tensor {
        dtype: DT_INT32
        tensor_shape {
          dim {
            size: 1
          }
        }
        int_val: 1
      }
    }
  }
}
node {
  name: "decoder/reshape_2/strided_slice"
  op: "StridedSlice"
  input: "decoder/reshape_2/Shape"
  input: "decoder/reshape_2/strided_slice/stack"
  input: "decoder/reshape_2/strided_slice/stack_1"
  input: "decoder/reshape_2/strided_slice/stack_2"
  attr {
    key: "Index"
    value {
      type: DT_INT32
    }
  }
  attr {
    key: "T"
    value {
      type: DT_INT32
    }
  }
  attr {
    key: "begin_mask"
    value {
      i: 0
    }
  }
  attr {
    key: "ellipsis_mask"
    value {
      i: 0
    }
  }
  attr {
    key: "end_mask"
    value {
      i: 0
    }
  }
  attr {
    key: "new_axis_mask"
    value {
      i: 0
    }
  }
  attr {
    key: "shrink_axis_mask"
    value {
      i: 1
    }
  }
}
node {
  name: "decoder/reshape_2/Reshape/shape/1"
  op: "Const"
  attr {
    key: "dtype"
    value {
      type: DT_INT32
    }
  }
  attr {
    key: "value"
    value {
      tensor {
        dtype: DT_INT32
        tensor_shape {
        }
        int_val: 8
      }
    }
  }
}
node {
  name: "decoder/reshape_2/Reshape/shape/2"
  op: "Const"
  attr {
    key: "dtype"
    value {
      type: DT_INT32
    }
  }
  attr {
    key: "value"
    value {
      tensor {
        dtype: DT_INT32
        tensor_shape {
        }
        int_val: 8
      }
    }
  }
}
node {
  name: "decoder/reshape_2/Reshape/shape/3"
  op: "Const"
  attr {
    key: "dtype"
    value {
      type: DT_INT32
    }
  }
  attr {
    key: "value"
    value {
      tensor {
        dtype: DT_INT32
        tensor_shape {
        }
        int_val: 8
      }
    }
  }
}
node {
  name: "decoder/reshape_2/Reshape/shape"
  op: "Pack"
  input: "decoder/reshape_2/strided_slice"
  input: "decoder/reshape_2/Reshape/shape/1"
  input: "decoder/reshape_2/Reshape/shape/2"
  input: "decoder/reshape_2/Reshape/shape/3"
  attr {
    key: "N"
    value {
      i: 4
    }
  }
  attr {
    key: "T"
    value {
      type: DT_INT32
    }
  }
  attr {
    key: "axis"
    value {
      i: 0
    }
  }
}
node {
  name: "decoder/reshape_2/Reshape"
  op: "Reshape"
  input: "decoder/dense_6/Relu"
  input: "decoder/reshape_2/Reshape/shape"
  attr {
    key: "T"
    value {
      type: DT_FLOAT
    }
  }
  attr {
    key: "Tshape"
    value {
      type: DT_INT32
    }
  }
}
node {
  name: "decoder/conv2d_transpose_4/Shape"
  op: "Shape"
  input: "decoder/reshape_2/Reshape"
  attr {
    key: "T"
    value {
      type: DT_FLOAT
    }
  }
  attr {
    key: "out_type"
    value {
      type: DT_INT32
    }
  }
}
node {
  name: "decoder/conv2d_transpose_4/strided_slice/stack"
  op: "Const"
  attr {
    key: "dtype"
    value {
      type: DT_INT32
    }
  }
  attr {
    key: "value"
    value {
      tensor {
        dtype: DT_INT32
        tensor_shape {
          dim {
            size: 1
          }
        }
        int_val: 0
      }
    }
  }
}
node {
  name: "decoder/conv2d_transpose_4/strided_slice/stack_1"
  op: "Const"
  attr {
    key: "dtype"
    value {
      type: DT_INT32
    }
  }
  attr {
    key: "value"
    value {
      tensor {
        dtype: DT_INT32
        tensor_shape {
          dim {
            size: 1
          }
        }
        int_val: 1
      }
    }
  }
}
node {
  name: "decoder/conv2d_transpose_4/strided_slice/stack_2"
  op: "Const"
  attr {
    key: "dtype"
    value {
      type: DT_INT32
    }
  }
  attr {
    key: "value"
    value {
      tensor {
        dtype: DT_INT32
        tensor_shape {
          dim {
            size: 1
          }
        }
        int_val: 1
      }
    }
  }
}
node {
  name: "decoder/conv2d_transpose_4/strided_slice"
  op: "StridedSlice"
  input: "decoder/conv2d_transpose_4/Shape"
  input: "decoder/conv2d_transpose_4/strided_slice/stack"
  input: "decoder/conv2d_transpose_4/strided_slice/stack_1"
  input: "decoder/conv2d_transpose_4/strided_slice/stack_2"
  attr {
    key: "Index"
    value {
      type: DT_INT32
    }
  }
  attr {
    key: "T"
    value {
      type: DT_INT32
    }
  }
  attr {
    key: "begin_mask"
    value {
      i: 0
    }
  }
  attr {
    key: "ellipsis_mask"
    value {
      i: 0
    }
  }
  attr {
    key: "end_mask"
    value {
      i: 0
    }
  }
  attr {
    key: "new_axis_mask"
    value {
      i: 0
    }
  }
  attr {
    key: "shrink_axis_mask"
    value {
      i: 1
    }
  }
}
node {
  name: "decoder/conv2d_transpose_4/stack/1"
  op: "Const"
  attr {
    key: "dtype"
    value {
      type: DT_INT32
    }
  }
  attr {
    key: "value"
    value {
      tensor {
        dtype: DT_INT32
        tensor_shape {
        }
        int_val: 8
      }
    }
  }
}
node {
  name: "decoder/conv2d_transpose_4/stack/2"
  op: "Const"
  attr {
    key: "dtype"
    value {
      type: DT_INT32
    }
  }
  attr {
    key: "value"
    value {
      tensor {
        dtype: DT_INT32
        tensor_shape {
        }
        int_val: 8
      }
    }
  }
}
node {
  name: "decoder/conv2d_transpose_4/stack/3"
  op: "Const"
  attr {
    key: "dtype"
    value {
      type: DT_INT32
    }
  }
  attr {
    key: "value"
    value {
      tensor {
        dtype: DT_INT32
        tensor_shape {
        }
        int_val: 8
      }
    }
  }
}
node {
  name: "decoder/conv2d_transpose_4/stack"
  op: "Pack"
  input: "decoder/conv2d_transpose_4/strided_slice"
  input: "decoder/conv2d_transpose_4/stack/1"
  input: "decoder/conv2d_transpose_4/stack/2"
  input: "decoder/conv2d_transpose_4/stack/3"
  attr {
    key: "N"
    value {
      i: 4
    }
  }
  attr {
    key: "T"
    value {
      type: DT_INT32
    }
  }
  attr {
    key: "axis"
    value {
      i: 0
    }
  }
}
node {
  name: "decoder/conv2d_transpose_4/conv2d_transpose/ReadVariableOp/resource"
  op: "Const"
  attr {
    key: "dtype"
    value {
      type: DT_FLOAT
    }
  }
  attr {
    key: "value"
    value {
      tensor {
        dtype: DT_FLOAT
        tensor_shape {
          dim {
            size: 3
          }
          dim {
            size: 3
          }
          dim {
            size: 8
          }
          dim {
            size: 8
          }
        }
        tensor_content: "…"
      }
    }
  }
}
node {
  name: "decoder/conv2d_transpose_4/conv2d_transpose/ReadVariableOp"
  op: "Identity"
  input: "decoder/conv2d_transpose_4/conv2d_transpose/ReadVariableOp/resource"
  attr {
    key: "T"
    value {
      type: DT_FLOAT
    }
  }
}
node {
  name: "decoder/conv2d_transpose_4/conv2d_transpose"
  op: "Conv2DBackpropInput"
  input: "decoder/conv2d_transpose_4/stack"
  input: "decoder/conv2d_transpose_4/conv2d_transpose/ReadVariableOp"
  input: "decoder/reshape_2/Reshape"
  attr {
    key: "T"
    value {
      type: DT_FLOAT
    }
  }
  attr {
    key: "data_format"
    value {
      s: "NHWC"
    }
  }
  attr {
    key: "dilations"
    value {
      list {
        i: 1
        i: 1
        i: 1
        i: 1
      }
    }
  }
  attr {
    key: "explicit_paddings"
    value {
      list {
      }
    }
  }
  attr {
    key: "padding"
    value {
      s: "SAME"
    }
  }
  attr {
    key: "strides"
    value {
      list {
        i: 1
        i: 1
        i: 1
        i: 1
      }
    }
  }
  attr {
    key: "use_cudnn_on_gpu"
    value {
      b: true
    }
  }
}
node {
  name: "decoder/conv2d_transpose_4/BiasAdd/ReadVariableOp/resource"
  op: "Const"
  attr {
    key: "dtype"
    value {
      type: DT_FLOAT
    }
  }
  attr {
    key: "value"
    value {
      tensor {
        dtype: DT_FLOAT
        tensor_shape {
          dim {
            size: 8
          }
        }
        tensor_content: "\220\261\234=(\202x>\255\345\310=4%\201\276d\017\247<\006\354\305\276\36262>\313\272\'>"
      }
    }
  }
}
node {
  name: "decoder/conv2d_transpose_4/BiasAdd/ReadVariableOp"
  op: "Identity"
  input: "decoder/conv2d_transpose_4/BiasAdd/ReadVariableOp/resource"
  attr {
    key: "T"
    value {
      type: DT_FLOAT
    }
  }
}
node {
  name: "decoder/conv2d_transpose_4/BiasAdd"
  op: "BiasAdd"
  input: "decoder/conv2d_transpose_4/conv2d_transpose"
  input: "decoder/conv2d_transpose_4/BiasAdd/ReadVariableOp"
  attr {
    key: "T"
    value {
      type: DT_FLOAT
    }
  }
  attr {
    key: "data_format"
    value {
      s: "NHWC"
    }
  }
}
node {
  name: "decoder/conv2d_transpose_4/Relu"
  op: "Relu"
  input: "decoder/conv2d_transpose_4/BiasAdd"
  attr {
    key: "T"
    value {
      type: DT_FLOAT
    }
  }
}
node {
  name: "decoder/conv2d_transpose_5/Shape"
  op: "Shape"
  input: "decoder/conv2d_transpose_4/Relu"
  attr {
    key: "T"
    value {
      type: DT_FLOAT
    }
  }
  attr {
    key: "out_type"
    value {
      type: DT_INT32
    }
  }
}
node {
  name: "decoder/conv2d_transpose_5/strided_slice/stack"
  op: "Const"
  attr {
    key: "dtype"
    value {
      type: DT_INT32
    }
  }
  attr {
    key: "value"
    value {
      tensor {
        dtype: DT_INT32
        tensor_shape {
          dim {
            size: 1
          }
        }
        int_val: 0
      }
    }
  }
}
node {
  name: "decoder/conv2d_transpose_5/strided_slice/stack_1"
  op: "Const"
  attr {
    key: "dtype"
    value {
      type: DT_INT32
    }
  }
  attr {
    key: "value"
    value {
      tensor {
        dtype: DT_INT32
        tensor_shape {
          dim {
            size: 1
          }
        }
        int_val: 1
      }
    }
  }
}
node {
  name: "decoder/conv2d_transpose_5/strided_slice/stack_2"
  op: "Const"
  attr {
    key: "dtype"
    value {
      type: DT_INT32
    }
  }
  attr {
    key: "value"
    value {
      tensor {
        dtype: DT_INT32
        tensor_shape {
          dim {
            size: 1
          }
        }
        int_val: 1
      }
    }
  }
}
node {
  name: "decoder/conv2d_transpose_5/strided_slice"
  op: "StridedSlice"
  input: "decoder/conv2d_transpose_5/Shape"
  input: "decoder/conv2d_transpose_5/strided_slice/stack"
  input: "decoder/conv2d_transpose_5/strided_slice/stack_1"
  input: "decoder/conv2d_transpose_5/strided_slice/stack_2"
  attr {
    key: "Index"
    value {
      type: DT_INT32
    }
  }
  attr {
    key: "T"
    value {
      type: DT_INT32
    }
  }
  attr {
    key: "begin_mask"
    value {
      i: 0
    }
  }
  attr {
    key: "ellipsis_mask"
    value {
      i: 0
    }
  }
  attr {
    key: "end_mask"
    value {
      i: 0
    }
  }
  attr {
    key: "new_axis_mask"
    value {
      i: 0
    }
  }
  attr {
    key: "shrink_axis_mask"
    value {
      i: 1
    }
  }
}
node {
  name: "decoder/conv2d_transpose_5/stack/1"
  op: "Const"
  attr {
    key: "dtype"
    value {
      type: DT_INT32
    }
  }
  attr {
    key: "value"
    value {
      tensor {
        dtype: DT_INT32
        tensor_shape {
        }
        int_val: 8
      }
    }
  }
}
node {
  name: "decoder/conv2d_transpose_5/stack/2"
  op: "Const"
  attr {
    key: "dtype"
    value {
      type: DT_INT32
    }
  }
  attr {
    key: "value"
    value {
      tensor {
        dtype: DT_INT32
        tensor_shape {
        }
        int_val: 8
      }
    }
  }
}
node {
  name: "decoder/conv2d_transpose_5/stack/3"
  op: "Const"
  attr {
    key: "dtype"
    value {
      type: DT_INT32
    }
  }
  attr {
    key: "value"
    value {
      tensor {
        dtype: DT_INT32
        tensor_shape {
        }
        int_val: 1
      }
    }
  }
}
node {
  name: "decoder/conv2d_transpose_5/stack"
  op: "Pack"
  input: "decoder/conv2d_transpose_5/strided_slice"
  input: "decoder/conv2d_transpose_5/stack/1"
  input: "decoder/conv2d_transpose_5/stack/2"
  input: "decoder/conv2d_transpose_5/stack/3"
  attr {
    key: "N"
    value {
      i: 4
    }
  }
  attr {
    key: "T"
    value {
      type: DT_INT32
    }
  }
  attr {
    key: "axis"
    value {
      i: 0
    }
  }
}
node {
  name: "decoder/conv2d_transpose_5/conv2d_transpose/ReadVariableOp/resource"
  op: "Const"
  attr {
    key: "dtype"
    value {
      type: DT_FLOAT
    }
  }
  attr {
    key: "value"
    value {
      tensor {
        dtype: DT_FLOAT
        tensor_shape {
          dim {
            size: 3
          }
          dim {
            size: 3
          }
          dim {
            size: 1
          }
          dim {
            size: 8
          }
        }
        tensor_content: "…"
      }
    }
  }
}
node {
  name: "decoder/conv2d_transpose_5/conv2d_transpose/ReadVariableOp"
  op: "Identity"
  input: "decoder/conv2d_transpose_5/conv2d_transpose/ReadVariableOp/resource"
  attr {
    key: "T"
    value {
      type: DT_FLOAT
    }
  }
}
node {
  name: "decoder/conv2d_transpose_5/conv2d_transpose"
  op: "Conv2DBackpropInput"
  input: "decoder/conv2d_transpose_5/stack"
  input: "decoder/conv2d_transpose_5/conv2d_transpose/ReadVariableOp"
  input: "decoder/conv2d_transpose_4/Relu"
  attr {
    key: "T"
    value {
      type: DT_FLOAT
    }
  }
  attr {
    key: "data_format"
    value {
      s: "NHWC"
    }
  }
  attr {
    key: "dilations"
    value {
      list {
        i: 1
        i: 1
        i: 1
        i: 1
      }
    }
  }
  attr {
    key: "explicit_paddings"
    value {
      list {
      }
    }
  }
  attr {
    key: "padding"
    value {
      s: "SAME"
    }
  }
  attr {
    key: "strides"
    value {
      list {
        i: 1
        i: 1
        i: 1
        i: 1
      }
    }
  }
  attr {
    key: "use_cudnn_on_gpu"
    value {
      b: true
    }
  }
}
node {
  name: "decoder/conv2d_transpose_5/BiasAdd/ReadVariableOp/resource"
  op: "Const"
  attr {
    key: "dtype"
    value {
      type: DT_FLOAT
    }
  }
  attr {
    key: "value"
    value {
      tensor {
        dtype: DT_FLOAT
        tensor_shape {
          dim {
            size: 1
          }
        }
        float_val: -0.23649021983146667
      }
    }
  }
}
node {
  name: "decoder/conv2d_transpose_5/BiasAdd/ReadVariableOp"
  op: "Identity"
  input: "decoder/conv2d_transpose_5/BiasAdd/ReadVariableOp/resource"
  attr {
    key: "T"
    value {
      type: DT_FLOAT
    }
  }
}
node {
  name: "decoder/conv2d_transpose_5/BiasAdd"
  op: "BiasAdd"
  input: "decoder/conv2d_transpose_5/conv2d_transpose"
  input: "decoder/conv2d_transpose_5/BiasAdd/ReadVariableOp"
  attr {
    key: "T"
    value {
      type: DT_FLOAT
    }
  }
  attr {
    key: "data_format"
    value {
      s: "NHWC"
    }
  }
}
node {
  name: "decoder/decoder_output/Sigmoid"
  op: "Sigmoid"
  input: "decoder/conv2d_transpose_5/BiasAdd"
  attr {
    key: "T"
    value {
      type: DT_FLOAT
    }
  }
}
node {
  name: "NoOp"
  op: "NoOp"
  input: "^decoder/conv2d_transpose_4/BiasAdd/ReadVariableOp"
  input: "^decoder/conv2d_transpose_4/conv2d_transpose/ReadVariableOp"
  input: "^decoder/conv2d_transpose_5/BiasAdd/ReadVariableOp"
  input: "^decoder/conv2d_transpose_5/conv2d_transpose/ReadVariableOp"
  input: "^decoder/dense_5/BiasAdd/ReadVariableOp"
  input: "^decoder/dense_5/MatMul/ReadVariableOp"
  input: "^decoder/dense_6/BiasAdd/ReadVariableOp"
  input: "^decoder/dense_6/MatMul/ReadVariableOp"
  attr {
    key: "_acd_function_control_output"
    value {
      b: true
    }
  }
}
node {
  name: "Identity"
  op: "Identity"
  input: "decoder/decoder_output/Sigmoid"
  input: "^NoOp"
  attr {
    key: "T"
    value {
      type: DT_FLOAT
    }
  }
}
versions {
  producer: 1087
}
