node {
  name: "x"
  op: "Placeholder"
  attr {
    key: "dtype"
    value {
      type: DT_FLOAT
    }
  }
  attr {
    key: "shape"
    value {
      shape {
        dim {
          size: -1
        }
        dim {
          size: 16
        }
      }
    }
  }
}
node {
  name: "decoder/dense_2/MatMul/ReadVariableOp/resource"
  op: "Const"
  attr {
    key: "dtype"
    value {
      type: DT_FLOAT
    }
  }
  attr {
    key: "value"
    value {
      tensor {
        dtype: DT_FLOAT
        tensor_shape {
          dim {
            size: 16
          }
          dim {
            size: 18
          }
        }
        tensor_content: "…"
      }
    }
  }
}
node {
  name: "decoder/dense_2/MatMul/ReadVariableOp"
  op: "Identity"
  input: "decoder/dense_2/MatMul/ReadVariableOp/resource"
  attr {
    key: "T"
    value {
      type: DT_FLOAT
    }
  }
}
node {
  name: "decoder/dense_2/MatMul"
  op: "MatMul"
  input: "x"
  input: "decoder/dense_2/MatMul/ReadVariableOp"
  attr {
    key: "T"
    value {
      type: DT_FLOAT
    }
  }
  attr {
    key: "transpose_a"
    value {
      b: false
    }
  }
  attr {
    key: "transpose_b"
    value {
      b: false
    }
  }
}
node {
  name: "decoder/dense_2/BiasAdd/ReadVariableOp/resource"
  op: "Const"
  attr {
    key: "dtype"
    value {
      type: DT_FLOAT
    }
  }
  attr {
    key: "value"
    value {
      tensor {
        dtype: DT_FLOAT
        tensor_shape {
          dim {
            size: 18
          }
        }
        tensor_content: "…"
      }
    }
  }
}
node {
  name: "decoder/dense_2/BiasAdd/ReadVariableOp"
  op: "Identity"
  input: "decoder/dense_2/BiasAdd/ReadVariableOp/resource"
  attr {
    key: "T"
    value {
      type: DT_FLOAT
    }
  }
}
node {
  name: "decoder/dense_2/BiasAdd"
  op: "BiasAdd"
  input: "decoder/dense_2/MatMul"
  input: "decoder/dense_2/BiasAdd/ReadVariableOp"
  attr {
    key: "T"
    value {
      type: DT_FLOAT
    }
  }
  attr {
    key: "data_format"
    value {
      s: "NHWC"
    }
  }
}
node {
  name: "decoder/dense_2/Relu"
  op: "Relu"
  input: "decoder/dense_2/BiasAdd"
  attr {
    key: "T"
    value {
      type: DT_FLOAT
    }
  }
}
node {
  name: "decoder/dense_3/MatMul/ReadVariableOp/resource"
  op: "Const"
  attr {
    key: "dtype"
    value {
      type: DT_FLOAT
    }
  }
  attr {
    key: "value"
    value {
      tensor {
        dtype: DT_FLOAT
        tensor_shape {
          dim {
            size: 18
          }
          dim {
            size: 55
          }
        }
        tensor_content: "…"
      }
    }
  }
}
node {
  name: "decoder/dense_3/MatMul/ReadVariableOp"
  op: "Identity"
  input: "decoder/dense_3/MatMul/ReadVariableOp/resource"
  attr {
    key: "T"
    value {
      type: DT_FLOAT
    }
  }
}
node {
  name: "decoder/dense_3/MatMul"
  op: "MatMul"
  input: "decoder/dense_2/Relu"
  input: "decoder/dense_3/MatMul/ReadVariableOp"
  attr {
    key: "T"
    value {
      type: DT_FLOAT
    }
  }
  attr {
    key: "transpose_a"
    value {
      b: false
    }
  }
  attr {
    key: "transpose_b"
    value {
      b: false
    }
  }
}
node {
  name: "decoder/dense_3/BiasAdd/ReadVariableOp/resource"
  op: "Const"
  attr {
    key: "dtype"
    value {
      type: DT_FLOAT
    }
  }
  attr {
    key: "value"
    value {
      tensor {
        dtype: DT_FLOAT
        tensor_shape {
          dim {
            size: 55
          }
        }
        tensor_content: "…"
      }
    }
  }
}
node {
  name: "decoder/dense_3/BiasAdd/ReadVariableOp"
  op: "Identity"
  input: "decoder/dense_3/BiasAdd/ReadVariableOp/resource"
  attr {
    key: "T"
    value {
      type: DT_FLOAT
    }
  }
}
node {
  name: "decoder/dense_3/BiasAdd"
  op: "BiasAdd"
  input: "decoder/dense_3/MatMul"
  input: "decoder/dense_3/BiasAdd/ReadVariableOp"
  attr {
    key: "T"
    value {
      type: DT_FLOAT
    }
  }
  attr {
    key: "data_format"
    value {
      s: "NHWC"
    }
  }
}
node {
  name: "decoder/dense_3/Relu"
  op: "Relu"
  input: "decoder/dense_3/BiasAdd"
  attr {
    key: "T"
    value {
      type: DT_FLOAT
    }
  }
}
node {
  name: "decoder/dense_4/MatMul/ReadVariableOp/resource"
  op: "Const"
  attr {
    key: "dtype"
    value {
      type: DT_FLOAT
    }
  }
  attr {
    key: "value"
    value {
      tensor {
        dtype: DT_FLOAT
        tensor_shape {
          dim {
            size: 55
          }
          dim {
            size: 320
          }
        }
        tensor_content: "…"
      }
    }
  }
}
node {
  name: "decoder/dense_4/MatMul/ReadVariableOp"
  op: "Identity"
  input: "decoder/dense_4/MatMul/ReadVariableOp/resource"
  attr {
    key: "T"
    value {
      type: DT_FLOAT
    }
  }
}
node {
  name: "decoder/dense_4/MatMul"
  op: "MatMul"
  input: "decoder/dense_3/Relu"
  input: "decoder/dense_4/MatMul/ReadVariableOp"
  attr {
    key: "T"
    value {
      type: DT_FLOAT
    }
  }
  attr {
    key: "transpose_a"
    value {
      b: false
    }
  }
  attr {
    key: "transpose_b"
    value {
      b: false
    }
  }
}
node {
  name: "decoder/dense_4/BiasAdd/ReadVariableOp/resource"
  op: "Const"
  attr {
    key: "dtype"
    value {
      type: DT_FLOAT
    }
  }
  attr {
    key: "value"
    value {
      tensor {
        dtype: DT_FLOAT
        tensor_shape {
          dim {
            size: 320
          }
        }
        tensor_content: "…"
      }
    }
  }
}
node {
  name: "decoder/dense_4/BiasAdd/ReadVariableOp"
  op: "Identity"
  input: "decoder/dense_4/BiasAdd/ReadVariableOp/resource"
  attr {
    key: "T"
    value {
      type: DT_FLOAT
    }
  }
}
node {
  name: "decoder/dense_4/BiasAdd"
  op: "BiasAdd"
  input: "decoder/dense_4/MatMul"
  input: "decoder/dense_4/BiasAdd/ReadVariableOp"
  attr {
    key: "T"
    value {
      type: DT_FLOAT
    }
  }
  attr {
    key: "data_format"
    value {
      s: "NHWC"
    }
  }
}
node {
  name: "decoder/dense_4/Relu"
  op: "Relu"
  input: "decoder/dense_4/BiasAdd"
  attr {
    key: "T"
    value {
      type: DT_FLOAT
    }
  }
}
node {
  name: "decoder/reshape/Shape"
  op: "Shape"
  input: "decoder/dense_4/Relu"
  attr {
    key: "T"
    value {
      type: DT_FLOAT
    }
  }
  attr {
    key: "out_type"
    value {
      type: DT_INT32
    }
  }
}
node {
  name: "decoder/reshape/strided_slice/stack"
  op: "Const"
  attr {
    key: "dtype"
    value {
      type: DT_INT32
    }
  }
  attr {
    key: "value"
    value {
      tensor {
        dtype: DT_INT32
        tensor_shape {
          dim {
            size: 1
          }
        }
        int_val: 0
      }
    }
  }
}
node {
  name: "decoder/reshape/strided_slice/stack_1"
  op: "Const"
  attr {
    key: "dtype"
    value {
      type: DT_INT32
    }
  }
  attr {
    key: "value"
    value {
      tensor {
        dtype: DT_INT32
        tensor_shape {
          dim {
            size: 1
          }
        }
        int_val: 1
      }
    }
  }
}
node {
  name: "decoder/reshape/strided_slice/stack_2"
  op: "Const"
  attr {
    key: "dtype"
    value {
      type: DT_INT32
    }
  }
  attr {
    key: "value"
    value {
      tensor {
        dtype: DT_INT32
        tensor_shape {
          dim {
            size: 1
          }
        }
        int_val: 1
      }
    }
  }
}
node {
  name: "decoder/reshape/strided_slice"
  op: "StridedSlice"
  input: "decoder/reshape/Shape"
  input: "decoder/reshape/strided_slice/stack"
  input: "decoder/reshape/strided_slice/stack_1"
  input: "decoder/reshape/strided_slice/stack_2"
  attr {
    key: "Index"
    value {
      type: DT_INT32
    }
  }
  attr {
    key: "T"
    value {
      type: DT_INT32
    }
  }
  attr {
    key: "begin_mask"
    value {
      i: 0
    }
  }
  attr {
    key: "ellipsis_mask"
    value {
      i: 0
    }
  }
  attr {
    key: "end_mask"
    value {
      i: 0
    }
  }
  attr {
    key: "new_axis_mask"
    value {
      i: 0
    }
  }
  attr {
    key: "shrink_axis_mask"
    value {
      i: 1
    }
  }
}
node {
  name: "decoder/reshape/Reshape/shape/1"
  op: "Const"
  attr {
    key: "dtype"
    value {
      type: DT_INT32
    }
  }
  attr {
    key: "value"
    value {
      tensor {
        dtype: DT_INT32
        tensor_shape {
        }
        int_val: 4
      }
    }
  }
}
node {
  name: "decoder/reshape/Reshape/shape/2"
  op: "Const"
  attr {
    key: "dtype"
    value {
      type: DT_INT32
    }
  }
  attr {
    key: "value"
    value {
      tensor {
        dtype: DT_INT32
        tensor_shape {
        }
        int_val: 4
      }
    }
  }
}
node {
  name: "decoder/reshape/Reshape/shape/3"
  op: "Const"
  attr {
    key: "dtype"
    value {
      type: DT_INT32
    }
  }
  attr {
    key: "value"
    value {
      tensor {
        dtype: DT_INT32
        tensor_shape {
        }
        int_val: 20
      }
    }
  }
}
node {
  name: "decoder/reshape/Reshape/shape"
  op: "Pack"
  input: "decoder/reshape/strided_slice"
  input: "decoder/reshape/Reshape/shape/1"
  input: "decoder/reshape/Reshape/shape/2"
  input: "decoder/reshape/Reshape/shape/3"
  attr {
    key: "N"
    value {
      i: 4
    }
  }
  attr {
    key: "T"
    value {
      type: DT_INT32
    }
  }
  attr {
    key: "axis"
    value {
      i: 0
    }
  }
}
node {
  name: "decoder/reshape/Reshape"
  op: "Reshape"
  input: "decoder/dense_4/Relu"
  input: "decoder/reshape/Reshape/shape"
  attr {
    key: "T"
    value {
      type: DT_FLOAT
    }
  }
  attr {
    key: "Tshape"
    value {
      type: DT_INT32
    }
  }
}
node {
  name: "decoder/conv2d_transpose/Shape"
  op: "Shape"
  input: "decoder/reshape/Reshape"
  attr {
    key: "T"
    value {
      type: DT_FLOAT
    }
  }
  attr {
    key: "out_type"
    value {
      type: DT_INT32
    }
  }
}
node {
  name: "decoder/conv2d_transpose/strided_slice/stack"
  op: "Const"
  attr {
    key: "dtype"
    value {
      type: DT_INT32
    }
  }
  attr {
    key: "value"
    value {
      tensor {
        dtype: DT_INT32
        tensor_shape {
          dim {
            size: 1
          }
        }
        int_val: 0
      }
    }
  }
}
node {
  name: "decoder/conv2d_transpose/strided_slice/stack_1"
  op: "Const"
  attr {
    key: "dtype"
    value {
      type: DT_INT32
    }
  }
  attr {
    key: "value"
    value {
      tensor {
        dtype: DT_INT32
        tensor_shape {
          dim {
            size: 1
          }
        }
        int_val: 1
      }
    }
  }
}
node {
  name: "decoder/conv2d_transpose/strided_slice/stack_2"
  op: "Const"
  attr {
    key: "dtype"
    value {
      type: DT_INT32
    }
  }
  attr {
    key: "value"
    value {
      tensor {
        dtype: DT_INT32
        tensor_shape {
          dim {
            size: 1
          }
        }
        int_val: 1
      }
    }
  }
}
node {
  name: "decoder/conv2d_transpose/strided_slice"
  op: "StridedSlice"
  input: "decoder/conv2d_transpose/Shape"
  input: "decoder/conv2d_transpose/strided_slice/stack"
  input: "decoder/conv2d_transpose/strided_slice/stack_1"
  input: "decoder/conv2d_transpose/strided_slice/stack_2"
  attr {
    key: "Index"
    value {
      type: DT_INT32
    }
  }
  attr {
    key: "T"
    value {
      type: DT_INT32
    }
  }
  attr {
    key: "begin_mask"
    value {
      i: 0
    }
  }
  attr {
    key: "ellipsis_mask"
    value {
      i: 0
    }
  }
  attr {
    key: "end_mask"
    value {
      i: 0
    }
  }
  attr {
    key: "new_axis_mask"
    value {
      i: 0
    }
  }
  attr {
    key: "shrink_axis_mask"
    value {
      i: 1
    }
  }
}
node {
  name: "decoder/conv2d_transpose/stack/1"
  op: "Const"
  attr {
    key: "dtype"
    value {
      type: DT_INT32
    }
  }
  attr {
    key: "value"
    value {
      tensor {
        dtype: DT_INT32
        tensor_shape {
        }
        int_val: 8
      }
    }
  }
}
node {
  name: "decoder/conv2d_transpose/stack/2"
  op: "Const"
  attr {
    key: "dtype"
    value {
      type: DT_INT32
    }
  }
  attr {
    key: "value"
    value {
      tensor {
        dtype: DT_INT32
        tensor_shape {
        }
        int_val: 8
      }
    }
  }
}
node {
  name: "decoder/conv2d_transpose/stack/3"
  op: "Const"
  attr {
    key: "dtype"
    value {
      type: DT_INT32
    }
  }
  attr {
    key: "value"
    value {
      tensor {
        dtype: DT_INT32
        tensor_shape {
        }
        int_val: 41
      }
    }
  }
}
node {
  name: "decoder/conv2d_transpose/stack"
  op: "Pack"
  input: "decoder/conv2d_transpose/strided_slice"
  input: "decoder/conv2d_transpose/stack/1"
  input: "decoder/conv2d_transpose/stack/2"
  input: "decoder/conv2d_transpose/stack/3"
  attr {
    key: "N"
    value {
      i: 4
    }
  }
  attr {
    key: "T"
    value {
      type: DT_INT32
    }
  }
  attr {
    key: "axis"
    value {
      i: 0
    }
  }
}
node {
  name: "decoder/conv2d_transpose/conv2d_transpose/ReadVariableOp/resource"
  op: "Const"
  attr {
    key: "dtype"
    value {
      type: DT_FLOAT
    }
  }
  attr {
    key: "value"
    value {
      tensor {
        dtype: DT_FLOAT
        tensor_shape {
          dim {
            size: 3
          }
          dim {
            size: 3
          }
          dim {
            size: 41
          }
          dim {
            size: 20
          }
        }
        tensor_content: "…"
      }
    }
  }
}
node {
  name: "decoder/conv2d_transpose/conv2d_transpose/ReadVariableOp"
  op: "Identity"
  input: "decoder/conv2d_transpose/conv2d_transpose/ReadVariableOp/resource"
  attr {
    key: "T"
    value {
      type: DT_FLOAT
    }
  }
}
node {
  name: "decoder/conv2d_transpose/conv2d_transpose"
  op: "Conv2DBackpropInput"
  input: "decoder/conv2d_transpose/stack"
  input: "decoder/conv2d_transpose/conv2d_transpose/ReadVariableOp"
  input: "decoder/reshape/Reshape"
  attr {
    key: "T"
    value {
      type: DT_FLOAT
    }
  }
  attr {
    key: "data_format"
    value {
      s: "NHWC"
    }
  }
  attr {
    key: "dilations"
    value {
      list {
        i: 1
        i: 1
        i: 1
        i: 1
      }
    }
  }
  attr {
    key: "explicit_paddings"
    value {
      list {
      }
    }
  }
  attr {
    key: "padding"
    value {
      s: "SAME"
    }
  }
  attr {
    key: "strides"
    value {
      list {
        i: 1
        i: 2
        i: 2
        i: 1
      }
    }
  }
  attr {
    key: "use_cudnn_on_gpu"
    value {
      b: true
    }
  }
}
node {
  name: "decoder/conv2d_transpose/BiasAdd/ReadVariableOp/resource"
  op: "Const"
  attr {
    key: "dtype"
    value {
      type: DT_FLOAT
    }
  }
  attr {
    key: "value"
    value {
      tensor {
        dtype: DT_FLOAT
        tensor_shape {
          dim {
            size: 41
          }
        }
        tensor_content: "…"
      }
    }
  }
}
node {
  name: "decoder/conv2d_transpose/BiasAdd/ReadVariableOp"
  op: "Identity"
  input: "decoder/conv2d_transpose/BiasAdd/ReadVariableOp/resource"
  attr {
    key: "T"
    value {
      type: DT_FLOAT
    }
  }
}
node {
  name: "decoder/conv2d_transpose/BiasAdd"
  op: "BiasAdd"
  input: "decoder/conv2d_transpose/conv2d_transpose"
  input: "decoder/conv2d_transpose/BiasAdd/ReadVariableOp"
  attr {
    key: "T"
    value {
      type: DT_FLOAT
    }
  }
  attr {
    key: "data_format"
    value {
      s: "NHWC"
    }
  }
}
node {
  name: "decoder/conv2d_transpose/Relu"
  op: "Relu"
  input: "decoder/conv2d_transpose/BiasAdd"
  attr {
    key: "T"
    value {
      type: DT_FLOAT
    }
  }
}
node {
  name: "decoder/conv2d_transpose_1/Shape"
  op: "Shape"
  input: "decoder/conv2d_transpose/Relu"
  attr {
    key: "T"
    value {
      type: DT_FLOAT
    }
  }
  attr {
    key: "out_type"
    value {
      type: DT_INT32
    }
  }
}
node {
  name: "decoder/conv2d_transpose_1/strided_slice/stack"
  op: "Const"
  attr {
    key: "dtype"
    value {
      type: DT_INT32
    }
  }
  attr {
    key: "value"
    value {
      tensor {
        dtype: DT_INT32
        tensor_shape {
          dim {
            size: 1
          }
        }
        int_val: 0
      }
    }
  }
}
node {
  name: "decoder/conv2d_transpose_1/strided_slice/stack_1"
  op: "Const"
  attr {
    key: "dtype"
    value {
      type: DT_INT32
    }
  }
  attr {
    key: "value"
    value {
      tensor {
        dtype: DT_INT32
        tensor_shape {
          dim {
            size: 1
          }
        }
        int_val: 1
      }
    }
  }
}
node {
  name: "decoder/conv2d_transpose_1/strided_slice/stack_2"
  op: "Const"
  attr {
    key: "dtype"
    value {
      type: DT_INT32
    }
  }
  attr {
    key: "value"
    value {
      tensor {
        dtype: DT_INT32
        tensor_shape {
          dim {
            size: 1
          }
        }
        int_val: 1
      }
    }
  }
}
node {
  name: "decoder/conv2d_transpose_1/strided_slice"
  op: "StridedSlice"
  input: "decoder/conv2d_transpose_1/Shape"
  input: "decoder/conv2d_transpose_1/strided_slice/stack"
  input: "decoder/conv2d_transpose_1/strided_slice/stack_1"
  input: "decoder/conv2d_transpose_1/strided_slice/stack_2"
  attr {
    key: "Index"
    value {
      type: DT_INT32
    }
  }
  attr {
    key: "T"
    value {
      type: DT_INT32
    }
  }
  attr {
    key: "begin_mask"
    value {
      i: 0
    }
  }
  attr {
    key: "ellipsis_mask"
    value {
      i: 0
    }
  }
  attr {
    key: "end_mask"
    value {
      i: 0
    }
  }
  attr {
    key: "new_axis_mask"
    value {
      i: 0
    }
  }
  attr {
    key: "shrink_axis_mask"
    value {
      i: 1
    }
  }
}
node {
  name: "decoder/conv2d_transpose_1/stack/1"
  op: "Const"
  attr {
    key: "dtype"
    value {
      type: DT_INT32
    }
  }
  attr {
    key: "value"
    value {
      tensor {
        dtype: DT_INT32
        tensor_shape {
        }
        int_val: 8
      }
    }
  }
}
node {
  name: "decoder/conv2d_transpose_1/stack/2"
  op: "Const"
  attr {
    key: "dtype"
    value {
      type: DT_INT32
    }
  }
  attr {
    key: "value"
    value {
      tensor {
        dtype: DT_INT32
        tensor_shape {
        }
        int_val: 8
      }
    }
  }
}
node {
  name: "decoder/conv2d_transpose_1/stack/3"
  op: "Const"
  attr {
    key: "dtype"
    value {
      type: DT_INT32
    }
  }
  attr {
    key: "value"
    value {
      tensor {
        dtype: DT_INT32
        tensor_shape {
        }
        int_val: 20
      }
    }
  }
}
node {
  name: "decoder/conv2d_transpose_1/stack"
  op: "Pack"
  input: "decoder/conv2d_transpose_1/strided_slice"
  input: "decoder/conv2d_transpose_1/stack/1"
  input: "decoder/conv2d_transpose_1/stack/2"
  input: "decoder/conv2d_transpose_1/stack/3"
  attr {
    key: "N"
    value {
      i: 4
    }
  }
  attr {
    key: "T"
    value {
      type: DT_INT32
    }
  }
  attr {
    key: "axis"
    value {
      i: 0
    }
  }
}
node {
  name: "decoder/conv2d_transpose_1/conv2d_transpose/ReadVariableOp/resource"
  op: "Const"
  attr {
    key: "dtype"
    value {
      type: DT_FLOAT
    }
  }
  attr {
    key: "value"
    value {
      tensor {
        dtype: DT_FLOAT
        tensor_shape {
          dim {
            size: 5
          }
          dim {
            size: 5
          }
          dim {
            size: 20
          }
          dim {
            size: 41
          }
        }
        tensor_content: "…"
      }
    }
  }
}
node {
  name: "decoder/conv2d_transpose_1/conv2d_transpose/ReadVariableOp"
  op: "Identity"
  input: "decoder/conv2d_transpose_1/conv2d_transpose/ReadVariableOp/resource"
  attr {
    key: "T"
    value {
      type: DT_FLOAT
    }
  }
}
node {
  name: "decoder/conv2d_transpose_1/conv2d_transpose"
  op: "Conv2DBackpropInput"
  input: "decoder/conv2d_transpose_1/stack"
  input: "decoder/conv2d_transpose_1/conv2d_transpose/ReadVariableOp"
  input: "decoder/conv2d_transpose/Relu"
  attr {
    key: "T"
    value {
      type: DT_FLOAT
    }
  }
  attr {
    key: "data_format"
    value {
      s: "NHWC"
    }
  }
  attr {
    key: "dilations"
    value {
      list {
        i: 1
        i: 1
        i: 1
        i: 1
      }
    }
  }
  attr {
    key: "explicit_paddings"
    value {
      list {
      }
    }
  }
  attr {
    key: "padding"
    value {
      s: "SAME"
    }
  }
  attr {
    key: "strides"
    value {
      list {
        i: 1
        i: 1
        i: 1
        i: 1
      }
    }
  }
  attr {
    key: "use_cudnn_on_gpu"
    value {
      b: true
    }
  }
}
node {
  name: "decoder/conv2d_transpose_1/BiasAdd/ReadVariableOp/resource"
  op: "Const"
  attr {
    key: "dtype"
    value {
      type: DT_FLOAT
    }
  }
  attr {
    key: "value"
    value {
      tensor {
        dtype: DT_FLOAT
        tensor_shape {
          dim {
            size: 20
          }
        }
        tensor_content: "…"
      }
    }
  }
}
node {
  name: "decoder/conv2d_transpose_1/BiasAdd/ReadVariableOp"
  op: "Identity"
  input: "decoder/conv2d_transpose_1/BiasAdd/ReadVariableOp/resource"
  attr {
    key: "T"
    value {
      type: DT_FLOAT
    }
  }
}
node {
  name: "decoder/conv2d_transpose_1/BiasAdd"
  op: "BiasAdd"
  input: "decoder/conv2d_transpose_1/conv2d_transpose"
  input: "decoder/conv2d_transpose_1/BiasAdd/ReadVariableOp"
  attr {
    key: "T"
    value {
      type: DT_FLOAT
    }
  }
  attr {
    key: "data_format"
    value {
      s: "NHWC"
    }
  }
}
node {
  name: "decoder/conv2d_transpose_1/Relu"
  op: "Relu"
  input: "decoder/conv2d_transpose_1/BiasAdd"
  attr {
    key: "T"
    value {
      type: DT_FLOAT
    }
  }
}
node {
  name: "decoder/conv2d_transpose_2/Shape"
  op: "Shape"
  input: "decoder/conv2d_transpose_1/Relu"
  attr {
    key: "T"
    value {
      type: DT_FLOAT
    }
  }
  attr {
    key: "out_type"
    value {
      type: DT_INT32
    }
  }
}
node {
  name: "decoder/conv2d_transpose_2/strided_slice/stack"
  op: "Const"
  attr {
    key: "dtype"
    value {
      type: DT_INT32
    }
  }
  attr {
    key: "value"
    value {
      tensor {
        dtype: DT_INT32
        tensor_shape {
          dim {
            size: 1
          }
        }
        int_val: 0
      }
    }
  }
}
node {
  name: "decoder/conv2d_transpose_2/strided_slice/stack_1"
  op: "Const"
  attr {
    key: "dtype"
    value {
      type: DT_INT32
    }
  }
  attr {
    key: "value"
    value {
      tensor {
        dtype: DT_INT32
        tensor_shape {
          dim {
            size: 1
          }
        }
        int_val: 1
      }
    }
  }
}
node {
  name: "decoder/conv2d_transpose_2/strided_slice/stack_2"
  op: "Const"
  attr {
    key: "dtype"
    value {
      type: DT_INT32
    }
  }
  attr {
    key: "value"
    value {
      tensor {
        dtype: DT_INT32
        tensor_shape {
          dim {
            size: 1
          }
        }
        int_val: 1
      }
    }
  }
}
node {
  name: "decoder/conv2d_transpose_2/strided_slice"
  op: "StridedSlice"
  input: "decoder/conv2d_transpose_2/Shape"
  input: "decoder/conv2d_transpose_2/strided_slice/stack"
  input: "decoder/conv2d_transpose_2/strided_slice/stack_1"
  input: "decoder/conv2d_transpose_2/strided_slice/stack_2"
  attr {
    key: "Index"
    value {
      type: DT_INT32
    }
  }
  attr {
    key: "T"
    value {
      type: DT_INT32
    }
  }
  attr {
    key: "begin_mask"
    value {
      i: 0
    }
  }
  attr {
    key: "ellipsis_mask"
    value {
      i: 0
    }
  }
  attr {
    key: "end_mask"
    value {
      i: 0
    }
  }
  attr {
    key: "new_axis_mask"
    value {
      i: 0
    }
  }
  attr {
    key: "shrink_axis_mask"
    value {
      i: 1
    }
  }
}
node {
  name: "decoder/conv2d_transpose_2/stack/1"
  op: "Const"
  attr {
    key: "dtype"
    value {
      type: DT_INT32
    }
  }
  attr {
    key: "value"
    value {
      tensor {
        dtype: DT_INT32
        tensor_shape {
        }
        int_val: 8
      }
    }
  }
}
node {
  name: "decoder/conv2d_transpose_2/stack/2"
  op: "Const"
  attr {
    key: "dtype"
    value {
      type: DT_INT32
    }
  }
  attr {
    key: "value"
    value {
      tensor {
        dtype: DT_INT32
        tensor_shape {
        }
        int_val: 8
      }
    }
  }
}
node {
  name: "decoder/conv2d_transpose_2/stack/3"
  op: "Const"
  attr {
    key: "dtype"
    value {
      type: DT_INT32
    }
  }
  attr {
    key: "value"
    value {
      tensor {
        dtype: DT_INT32
        tensor_shape {
        }
        int_val: 1
      }
    }
  }
}
node {
  name: "decoder/conv2d_transpose_2/stack"
  op: "Pack"
  input: "decoder/conv2d_transpose_2/strided_slice"
  input: "decoder/conv2d_transpose_2/stack/1"
  input: "decoder/conv2d_transpose_2/stack/2"
  input: "decoder/conv2d_transpose_2/stack/3"
  attr {
    key: "N"
    value {
      i: 4
    }
  }
  attr {
    key: "T"
    value {
      type: DT_INT32
    }
  }
  attr {
    key: "axis"
    value {
      i: 0
    }
  }
}
node {
  name: "decoder/conv2d_transpose_2/conv2d_transpose/ReadVariableOp/resource"
  op: "Const"
  attr {
    key: "dtype"
    value {
      type: DT_FLOAT
    }
  }
  attr {
    key: "value"
    value {
      tensor {
        dtype: DT_FLOAT
        tensor_shape {
          dim {
            size: 3
          }
          dim {
            size: 3
          }
          dim {
            size: 1
          }
          dim {
            size: 20
          }
        }
        tensor_content: "…"
      }
    }
  }
}
node {
  name: "decoder/conv2d_transpose_2/conv2d_transpose/ReadVariableOp"
  op: "Identity"
  input: "decoder/conv2d_transpose_2/conv2d_transpose/ReadVariableOp/resource"
  attr {
    key: "T"
    value {
      type: DT_FLOAT
    }
  }
}
node {
  name: "decoder/conv2d_transpose_2/conv2d_transpose"
  op: "Conv2DBackpropInput"
  input: "decoder/conv2d_transpose_2/stack"
  input: "decoder/conv2d_transpose_2/conv2d_transpose/ReadVariableOp"
  input: "decoder/conv2d_transpose_1/Relu"
  attr {
    key: "T"
    value {
      type: DT_FLOAT
    }
  }
  attr {
    key: "data_format"
    value {
      s: "NHWC"
    }
  }
  attr {
    key: "dilations"
    value {
      list {
        i: 1
        i: 1
        i: 1
        i: 1
      }
    }
  }
  attr {
    key: "explicit_paddings"
    value {
      list {
      }
    }
  }
  attr {
    key: "padding"
    value {
      s: "SAME"
    }
  }
  attr {
    key: "strides"
    value {
      list {
        i: 1
        i: 1
        i: 1
        i: 1
      }
    }
  }
  attr {
    key: "use_cudnn_on_gpu"
    value {
      b: true
    }
  }
}
node {
  name: "decoder/conv2d_transpose_2/BiasAdd/ReadVariableOp/resource"
  op: "Const"
  attr {
    key: "dtype"
    value {
      type: DT_FLOAT
    }
  }
  attr {
    key: "value"
    value {
      tensor {
        dtype: DT_FLOAT
        tensor_shape {
          dim {
            size: 1
          }
        }
        float_val: -0.02445019781589508
      }
    }
  }
}
node {
  name: "decoder/conv2d_transpose_2/BiasAdd/ReadVariableOp"
  op: "Identity"
  input: "decoder/conv2d_transpose_2/BiasAdd/ReadVariableOp/resource"
  attr {
    key: "T"
    value {
      type: DT_FLOAT
    }
  }
}
node {
  name: "decoder/conv2d_transpose_2/BiasAdd"
  op: "BiasAdd"
  input: "decoder/conv2d_transpose_2/conv2d_transpose"
  input: "decoder/conv2d_transpose_2/BiasAdd/ReadVariableOp"
  attr {
    key: "T"
    value {
      type: DT_FLOAT
    }
  }
  attr {
    key: "data_format"
    value {
      s: "NHWC"
    }
  }
}
node {
  name: "decoder/decoder_output/Sigmoid"
  op: "Sigmoid"
  input: "decoder/conv2d_transpose_2/BiasAdd"
  attr {
    key: "T"
    value {
      type: DT_FLOAT
    }
  }
}
node {
  name: "NoOp"
  op: "NoOp"
  input: "^decoder/conv2d_transpose/BiasAdd/ReadVariableOp"
  input: "^decoder/conv2d_transpose/conv2d_transpose/ReadVariableOp"
  input: "^decoder/conv2d_transpose_1/BiasAdd/ReadVariableOp"
  input: "^decoder/conv2d_transpose_1/conv2d_transpose/ReadVariableOp"
  input: "^decoder/conv2d_transpose_2/BiasAdd/ReadVariableOp"
  input: "^decoder/conv2d_transpose_2/conv2d_transpose/ReadVariableOp"
  input: "^decoder/dense_2/BiasAdd/ReadVariableOp"
  input: "^decoder/dense_2/MatMul/ReadVariableOp"
  input: "^decoder/dense_3/BiasAdd/ReadVariableOp"
  input: "^decoder/dense_3/MatMul/ReadVariableOp"
  input: "^decoder/dense_4/BiasAdd/ReadVariableOp"
  input: "^decoder/dense_4/MatMul/ReadVariableOp"
  attr {
    key: "_acd_function_control_output"
    value {
      b: true
    }
  }
}
node {
  name: "Identity"
  op: "Identity"
  input: "decoder/decoder_output/Sigmoid"
  input: "^NoOp"
  attr {
    key: "T"
    value {
      type: DT_FLOAT
    }
  }
}
versions {
  producer: 1087
}
